LPRNet/weights/Final_STN_model.pth (torch_old, 223371 bytes, 8 tensors)

localization.0.weight f4 [32, 3, 3, 3]
000000 9f 89 91 bc 9e 87 a6 bc c9 00 59 bc 2a 7a 4b bc
       -0.017765818 -0.02032834 -0.013244816 -0.012419263
000010 16 cc 58 bc 6a 0e 0a bc 8b e1 65 bc c4 5f 73 bc
       -0.013232252 -0.008426288 -0.014030824 -0.014854375
000020 ea 9d 86 bc 9c a7 97 3b e9 72 f4 3b 31 23 a8 3a
       -0.016432721 0.004628135 0.0074599874 0.0012827871
000030 54 7a c4 3c 06 bb 9d 3c 2c 33 78 3c c6 6a 4f 3c
       0.023984112 0.019254219 0.015148919 0.012659734
000040 d4 5b f1 3b b0 37 03 3c 01 a1 f6 3b 30 76 e6 bb
       0.007365683 0.008008882 0.0075265174 -0.007033132
000050 61 74 44 bc 27 14 10 3c ec b5 15 3c ae 48 56 3c
       -0.0119906375 0.008793867 0.009137612 0.013078852
000060 ad 42 eb 3b 4d 17 35 ba 62 f0 17 3c 46 18 a4 bc
       0.007179579 -0.0006908074 0.00927362 -0.020031106
000070 ee c4 41 bc 29 f4 6d 3b 9c ef 29 bc 27 a0 f1 bb
       -0.011826737 0.003630886 -0.010372069 -0.007373828
000080 d7 30 14 3a 69 ec 11 ba 3a 3c 2c 3b d8 46 c5 3b
       0.00056530297 -0.0005566539 0.0026281015 0.006020408
000090 22 1f 29 39 43 e3 26 3b 99 06 72 3c d0 da 0f 3c
       0.00016128694 0.0025465048 0.014772081 0.008780196
0000a0 b2 f1 b6 3b 4b c1 0c 3c 6c d2 f0 3b aa b1 90 3b
       0.0055830115 0.0085910065 0.007349303 0.0044157105
0000b0 2c 7f 8e 3b b4 90 ca bb bf 1a e5 ba 5c 58 90 3c
       0.004348656 -0.0061818007 -0.0017479284 0.017620258
0000c0 5a 99 16 3b 02 d2 d4 ba d5 d0 c9 3b e6 10 8f bb
       0.0022979588 -0.0016236904 0.006158928 -0.004366028
0000d0 b2 81 ca bb b1 44 46 bb fb dc 42 3d 11 70 25 bd
       -0.0061800117 -0.0030253346 0.047574025 -0.040390078
0000e0 7b cf be bd 30 89 9b bd f2 24 2b bd 1b 35 30 3e
       -0.093169175 -0.07594526 -0.04178328 0.17207758
0000f0 53 4b 30 be 42 e1 d8 3c 27 49 1c bd 4a d0 a9 be
       -0.17216234 0.026474599 -0.0381557 -0.33166724
000100 a8 08 61 be e9 ff 02 3e 9d 06 51 be 02 c8 a8 3d
       -0.21975958 0.12792934 -0.20412679 0.082412735
000110 9d 68 b9 3d 87 b8 03 3e 3e c9 2f 3e 9e 8f 23 3e
       0.090531565 0.1286336 0.17166612 0.15972754
000120 7a 42 eb bd 6f 89 20 be 67 03 2a 3e 2d 54 64 be
       -0.11487289 -0.15677427 0.1660286 -0.22297736
000130 aa 6b 86 3d 4a b3 b1 3e 0a f3 2f 3d 4a 39 88 3e
       0.06563504 0.347071 0.04295639 0.26606208
000140 30 ed 71 3d 82 a3 89 bc cb 17 c5 bc e2 d5 cf bc
       0.05906409 -0.0168016 -0.024059197 -0.025370542
000150 ec 4b 93 bc 5a 65 dd bc 88 e5 d2 bc b3 e8 94 bc
       -0.017980538 -0.027025867 -0.025744215 -0.018177366
000160 ca 6f e1 bc 81 a3 15 bd d8 d0 f5 3b fe b3 d0 ba
       -0.027519125 -0.036532883 0.0075017028 -0.0015922782
000170 c9 a1 44 ba 41 da 2d 3b bd fc 23 bc ae fa e9 bb
       -0.00075009145 0.0026527795 -0.010008988 -0.007140479
000180 65 c8 37 3c a5 55 b0 bb 7f e1 8b bc 63 33 1f 3d
       0.011217211 -0.0053813034 -0.017075298 0.038867366
000190 64 a6 01 3d a7 3b 1b 3d 07 1d 1a 3d af 6f bc 3c
       0.031652823 0.037898686 0.03762534 0.023002474
0001a0 aa c6 fb 3c 02 3c 50 3d 57 c7 10 3d c0 a6 f0 3c
       0.030734379 0.050838478 0.035346355 0.029376388
0001b0 54 52 02 bd 72 c9 1b 3d 9a a6 13 be 7b 02 63 bc
       -0.031816795 0.03803391 -0.14419022 -0.013855572
0001c0 8c c4 23 3e d4 c1 0b 3e ff 0b 6d bc 85 d8 53 bd
       0.15992945 0.13648158 -0.014468192 -0.05172016
0001d0 13 05 82 3e e8 8c 94 3c 4b 3b 49 3e 64 9e 81 bd
       0.25394496 0.018133596 0.19651525 -0.06329039
0001e0 30 45 e6 3c 8e fa 62 3e cd e2 cd bd 0e 49 87 3e
       0.028109163 0.22165892 -0.100530244 0.26422924
0001f0 28 f1 77 be 50 65 92 be 63 2c b9 3d 27 21 26 3e
       -0.24213088 -0.2859292 0.09041669 0.16223584
000200 73 ea f0 3d a4 5d 3f 3e 72 02 76 3e 71 41 52 be
       0.11763468 0.18688065 0.2402437 -0.20532776
000210 5e 98 03 3e 68 bb 54 be b6 62 57 be 32 de 57 bd
       0.12851092 -0.20774615 -0.21033749 -0.052702136
000220 b8 9b 5c bd a5 08 62 bd 35 50 6e bd b4 72 78 bd
       -0.053859442 -0.055184025 -0.05818196 -0.060656264
000230 87 89 64 bd f5 77 4e bd 4a aa 39 bd c2 e1 38 bd
       -0.05579522 -0.05040737 -0.045328416 -0.045137174
000240 d2 45 c7 3c 45 2a ab 3c df 68 91 3c 0e 34 63 3c
       0.024325285 0.02089418 0.017750202 0.013867391
000250 10 dc 84 3c fe 86 7c 3c 12 15 ca 3c ce f2 f1 3c
       0.016218215 0.015413044 0.02466825 0.029534724
000260 06 85 f8 3c 1a 27 e8 3c c0 89 c9 3c 32 c6 c5 3c
       0.030336868 0.028338958 0.024601817 0.024142358
000270 e9 13 b2 3c 93 83 bb 3c 05 47 ba 3c eb b7 02 3d
       0.02173801 0.022889888 0.022738943 0.03191368
000280 07 5b fb 3c c1 96 f7 3c b1 d1 87 be 34 db d1 bd
       0.030683054 0.030223252 -0.2652717 -0.10246888
000290 c1 17 35 3d 42 44 95 3d 9c 45 99 3e 5f 92 93 3d
       0.044212107 0.0728841 0.2993592 0.072056524
0002a0 e0 7f a5 ba 27 f0 bb bd 46 6f c0 3c e3 f0 90 be
       -0.0012626611 -0.09176665 0.02349056 -0.28308782
0002b0 72 8b b3 bc 31 4a 1f 3e d9 98 8a 3c 96 61 9c 3e
       -0.021917079 0.15555646 0.016918587 0.30543202
0002c0 fb ac dd bd 52 44 7b 3d 34 ee 24 be bb 3e 75 bd
       -0.10824009 0.061344452 -0.16106492 -0.059874278
0002d0 3f da e8 bd d8 d0 b7 bd 78 46 68 3e c6 6f 74 3d
       -0.11369752 -0.08975381 0.22683132 0.059676908
0002e0 e9 eb 33 3e 5e b1 82 3d e1 cb 28 3e 02 2e 31 be
       0.17570461 0.06381486 0.16484024 -0.17302707
0002f0 45 d8 f5 bd 57 f5 1c bd 1e 99 19 bd 6a f6 02 bd
       -0.12004141 -0.03831991 -0.03749954 -0.03197328
000300 4c 6a e0 bc 62 a4 08 bd 30 f0 05 bd bb 37 29 bd
       -0.027394436 -0.033359893 -0.032699764 -0.041312914
000310 ed d4 42 bd c1 af 20 bd 35 47 94 bb eb ba b8 bb
       -0.047566343 -0.039230112 -0.00452509 -0.0056375167
000320 5a 46 04 3c 6f 05 78 3b 82 d3 16 ba 07 28 fa 3b
       0.008073414 0.0037845036 -0.0005753563 0.007634166
000330 b1 41 b8 bc 97 f7 e0 bc ad 3a 1c bc 82 9e 8e 3d
       -0.022492262 -0.02746181 -0.009535474 0.06963827
000340 95 89 8d 3d ab fd c5 3d 60 f3 aa 3d c6 dd 93 3d
       0.06911007 0.09667524 0.08347201 0.07220034
000350 1c 46 b8 3d 03 14 35 3d 95 ee 0f 3d 5a 2b 88 3d
       0.08997747 0.044208538 0.03513964 0.06648894
000360 aa 9d 92 bc a6 7c 8f bc b2 80 11 bc 22 9b 17 bc
       -0.017897446 -0.017515492 -0.008880781 -0.009253295
000370 39 c3 20 bc 61 4b 4a bc 60 8b dc 3a d0 15 ad bb
       -0.00981217 -0.012347073 0.0016826205 -0.0052821413
000380 0d c1 7b bb 5f 0f 77 bc 0f 1a 91 bc 4b 8b 1d bc
       -0.0038414628 -0.015079348 -0.017712621 -0.00961573
000390 3b f5 9c bc c0 de a4 bc fb ec a7 bc 21 78 91 bc
       -0.019159904 -0.020125747 -0.020498743 -0.017757477
0003a0 65 82 d5 bc 59 7d d0 bc cc 04 ff 3c 33 df 04 3d
       -0.026063154 -0.025450395 0.031130217 0.03243942
0003b0 20 a0 44 3d 8a 73 ea 3c bc b5 dd 3c 9a fb 01 3d
       0.04800427 0.028619546 0.027064197 0.031734087
0003c0 e5 fe dc 3c 50 0c 9e 3c 7a 08 ac 3c 25 4e fb 3c
       0.026977012 0.01929298 0.021000136 0.03067691
0003d0 8f 88 06 3d 54 d7 15 3e 94 5f ec 3d 75 57 53 3d
       0.032845076 0.14632922 0.115416676 0.051597077
0003e0 7e d1 2d 3e 8d f9 79 be 6f 43 8d bb d1 6e d7 bc
       0.16974446 -0.24411602 -0.004311017 -0.026297959
0003f0 9d 79 b4 bc a5 76 f3 bd 0f 6d 9a 3e 5e 2a 18 be
       -0.022030646 -0.11887864 0.3016133 -0.14859912

localization.0.bias f4 [32]
000000 08 e7 08 bd 0c e6 93 bd 0b a5 25 3e 6c 8f 38 be
       -0.033423454 -0.07221612 0.1617624 -0.18023461
000010 2a 5e ef be 96 77 bb bd 4e 49 d2 be 7b ad 18 bd
       -0.4675153 -0.091536686 -0.41071552 -0.03727482
000020 3d 1d 53 bd 83 60 0a bf 6b 55 d8 bd 87 3e f2 3b
       -0.051541556 -0.54053515 -0.10563167 0.0073927077
000030 a5 b7 cd be 71 f2 d1 be f1 24 31 be af f4 ee be
       -0.40179172 -0.4100528 -0.17299248 -0.46671054
000040 0a 35 e9 b9 c7 c8 26 bf 69 fb 27 9a de 6c 0a bf
       -0.0004448074 -0.6515011 -3.4737878e-23 -0.5407237
000050 3a 39 54 9c 60 3b 14 bf f3 a9 28 be 0a ac ac bd
       -7.021888e-22 -0.579031 -0.1647108 -0.08431251
000060 a0 6d 8e bd 42 60 c9 bd d6 2e 87 be 2d e1 02 bf
       -0.06954503 -0.09832813 -0.2640292 -0.5112484
000070 95 ee 6c b0 f0 8d 6f be d7 aa fa be fd 35 a3 99
       -8.6195345e-10 -0.23393989 -0.48958465 -1.687561e-23

localization.3.weight f4 [32, 32, 5, 5]
000000 e1 c3 03 80 cd 20 00 00 d5 e0 02 00 92 5f 07 80
       -3.45775e-40 1.1767e-41 2.64326e-40 -6.77133e-40
000010 e2 ad 00 00 e5 7f 06 80 b3 4d 09 00 9a 52 0a 00
       6.2377e-41 -5.96893e-40 8.54393e-40 9.47987e-40
000020 1e f2 03 00 46 9b 06 00 3d 58 05 00 f6 ea 05 80
       3.62362e-40 6.06715e-40 4.90831e-40 -5.43466e-40
000030 5e 65 07 80 21 24 05 80 74 e8 02 80 d0 0e 0b 00
       -6.79212e-40 -4.72138e-40 -2.6706e-40 1.015504e-39
000040 74 ec 06 00 d5 d5 06 00 86 d8 02 00 17 46 08 00
       6.35836e-40 6.27721e-40 2.61345e-40 7.59827e-40
000050 ea a8 0c 80 49 6a 03 00 c5 76 09 80 00 65 00 80
       -1.162621e-39 3.13634e-40 -8.69126e-40 -3.6232e-41
000060 ae a7 0a 80 4d 15 01 00 d5 cd 00 00 24 d5 09 80
       -9.78507e-40 9.9477e-41 7.3839e-41 -9.0298e-40
000070 a8 26 05 80 82 4e 09 80 3f 08 02 00 c2 2f 0b 80
       -4.73045e-40 -8.54683e-40 1.86629e-40 -1.027323e-39
000080 64 be 02 80 78 6d 05 00 00 73 08 80 e2 91 05 00
       -2.5197e-40 4.98447e-40 -7.75938e-40 5.1151e-40
000090 40 21 0c 80 d1 51 02 00 f7 1c 0a 00 c9 fc 04 00
       -1.113954e-39 2.13021e-40 9.28746e-40 4.58024e-40
0000a0 67 29 06 80 b5 36 07 00 9b b9 02 00 ea 67 07 00
       -5.65865e-40 6.62474e-40 2.50254e-40 6.80126e-40
0000b0 f9 a8 04 80 fd ce 00 00 c1 64 00 00 22 75 05 80
       -4.27958e-40 7.4253e-41 3.6144e-41 -5.01197e-40
0000c0 75 7c 0a 80 ee bc 06 00 c6 dc 68 b8 12 02 87 b6
       -9.63002e-40 6.18788e-40 -5.551872e-05 -4.0235545e-06
0000d0 98 70 8a b6 4d 2b 09 b9 60 87 25 b7 15 c6 87 b9
       -4.125828e-06 -0.00013081469 -9.866286e-06 -0.0002589679
0000e0 05 30 94 b8 00 4f 09 b9 6d f5 6a b9 41 4e a3 b8
       -7.066134e-05 -0.00013094768 -0.00022407407 -7.7870216e-05
0000f0 69 bd 79 b8 93 54 7f b8 87 be 02 b9 ba e1 4e b9
       -5.9542628e-05 -6.0875504e-05 -0.00012468743 -0.0001972978
000100 08 f1 4b b8 ae 70 b6 b5 3c 74 c1 b7 fe 08 07 b9
       -4.862345e-05 -1.3592851e-06 -2.3061519e-05 -0.00012877953
000110 a5 29 63 b8 5e 04 1c b8 0c c1 6c b2 1b 78 42 b6
       -5.4159802e-05 -3.7197366e-05 -1.3780902e-08 -2.8978163e-06
000120 d3 cf 85 b5 21 1d 12 b5 42 83 4d b8 2b e6 0e 80
       -9.969757e-07 -5.4431626e-07 -4.8998052e-05 -1.368266e-39
000130 08 21 09 80 72 49 08 80 6c b0 00 00 59 99 0d 00
       -8.38369e-40 -7.61031e-40 6.3288e-41 1.248872e-39
000140 dd f9 0b 00 4b 48 04 80 ee 27 0c 00 ef ae 06 00
       1.099825e-39 -3.93276e-40 1.11635e-39 6.13767e-40
000150 e4 61 00 00 03 f8 03 00 7b 9d 0d 80 d8 5f 07 00
       3.5117e-41 3.64476e-40 -1.250355e-39 6.77231e-40
000160 73 cc 09 80 13 4a 09 00 a4 1b 01 00 99 77 02 00
       -8.99862e-40 8.53092e-40 1.01751e-40 2.26575e-40
000170 2a 56 01 80 ba f4 05 80 d9 b0 07 80 fe ff 00 00
       -1.22745e-40 -5.46969e-40 -7.0629e-40 9.1833e-41
000180 4d 21 01 80 9f 17 02 00 de 31 04 80 ac b0 04 00
       -1.03782e-40 1.92145e-40 -3.85231e-40 4.3072e-40
000190 bc a3 01 80 1c 94 03 80 ee 83 0a 00 2e 46 04 80
       -1.50572e-40 -3.28638e-40 9.65682e-40 -3.92518e-40
0001a0 ad 8f ad 87 2e 1c 02 80 3c 68 03 00 36 aa 03 00
       -2.6114592e-34 -1.9378e-40 3.12899e-40 3.36567e-40
0001b0 a2 7e 01 80 cd 84 00 00 cf 5c 3e a0 95 5e 01 80
       -1.37263e-40 4.764e-41 -1.6124334e-19 -1.25765e-40
0001c0 4a b1 02 80 99 ab 0a 8f 5f bb 03 80 f1 bb 00 80
       -2.4727e-40 -6.836974e-30 -3.42723e-40 -6.742e-41
0001d0 24 14 03 00 7b 3f 03 80 02 a7 02 80 41 67 03 80
       2.82732e-40 -2.98279e-40 -2.43582e-40 -3.12547e-40
0001e0 55 a7 02 00 74 29 00 80 d9 63 3d 89 7a f6 00 80
       2.43698e-40 -1.487e-41 -2.2796996e-33 -8.8419e-41
0001f0 5a 81 03 80 bc c6 09 80 50 3e 0b 80 3f 52 0b 80
       -3.21909e-40 -8.97812e-40 -1.032544e-39 -1.039695e-39
000200 1a 29 03 80 88 c9 08 80 b2 7d 0a 00 55 b8 01 80
       -2.90251e-40 -8.0698e-40 9.63446e-40 -1.57961e-40
000210 fc 7c 03 00 8c 3e 0c 00 96 2a 04 80 0f 80 02 00
       3.20342e-40 1.124464e-39 -3.82619e-40 2.2961e-40
000220 a2 8c 05 80 bf ac 0b 00 e5 66 09 00 41 7d 09 00
       -5.09627e-40 1.07216e-39 8.63431e-40 8.71452e-40
000230 a3 58 08 00 0f b3 08 00 a5 5b 0b 00 89 aa 0d 80
       7.66481e-40 7.98918e-40 1.043066e-39 -1.255038e-39
000240 cb 6a 07 00 97 22 01 80 ca 3d 00 80 10 7f 00 80
       6.81159e-40 -1.04244e-40 -2.2166e-41 -4.5581e-41
000250 ca 95 0b 80 2f 6c 07 80 aa 75 13 97 d5 8d 49 93
       -1.063925e-39 -6.81657e-40 -4.7646775e-25 -2.5439695e-27
000260 61 d5 00 00 07 1f 18 9c 17 02 60 b1 55 3f 51 ad
       7.6546e-41 -5.0332683e-22 -3.2597478e-09 -1.1894337e-11
000270 15 ab fc 9a 3c 12 95 a3 2c 9f b7 93 6f ea 01 80
       -1.04501155e-22 -1.6162335e-17 -4.635265e-27 -1.75934e-40
000280 79 e1 7d b1 e3 40 ca ad e0 10 18 a8 d2 e9 24 af
       -3.6944512e-09 -2.2993557e-11 -8.441354e-15 -1.4998783e-10
000290 40 c2 45 ac a8 31 11 a7 df 1c b1 a9 8e 62 73 b4
       -2.8103214e-12 -2.014971e-15 -7.8653874e-14 -2.2666993e-07
0002a0 9b fa b8 b0 34 26 01 b1 66 39 0a 07 b1 d9 52 ae
       -1.3458988e-09 -1.8793687e-09 1.0398834e-34 -4.794182e-11
0002b0 48 e6 b0 b4 07 5e 53 ae 8e 5f cc af 18 b1 0d 00
       -3.2950106e-07 -4.805936e-11 -3.717528e-10 1.257391e-39
0002c0 9f 28 09 00 d6 05 07 00 70 a2 09 80 ff 71 05 00
       8.41092e-40 6.44942e-40 -8.84791e-40 5.00072e-40
0002d0 3a 7b 01 00 03 f7 02 00 b9 6d 0b 00 f8 32 03 80
       1.36041e-40 2.72282e-40 1.049552e-39 -2.9379e-40
0002e0 3d 73 00 80 0c 8d 09 80 76 8b 07 80 2a d7 01 00
       -4.134e-41 -8.77118e-40 -6.92878e-40 1.69022e-40
0002f0 3d 2c 06 80 f6 e9 02 80 e0 91 07 80 30 23 08 80
       -5.66883e-40 -2.676e-40 -6.95179e-40 -7.47307e-40
000300 2b f5 00 80 35 f4 02 80 ea 9f 06 80 84 53 01 80
       -8.795e-41 -2.71276e-40 -6.0838e-40 -1.21795e-40
000310 77 a5 0e 80 7e 1a 07 80 20 55 09 00 8d 13 0c 80
       -1.345055e-39 -6.52352e-40 8.57057e-40 -1.10904e-39
000320 e7 30 04 00 77 73 08 00 1b f6 06 80 f4 2a 07 80
       3.84885e-40 7.76105e-40 -6.39299e-40 -6.58257e-40
000330 ca 5f 06 00 16 bd 0a 00 cb f2 0a 00 ae 6f 01 00
       5.85376e-40 9.86186e-40 1.005453e-39 1.31899e-40
000340 0c 30 09 00 40 09 03 80 8b 79 07 80 93 dc 01 80
       8.43755e-40 -2.78825e-40 -6.8645e-40 -1.70963e-40
000350 3a fe 05 00 e1 5a 00 00 68 f3 03 00 dc 0d 08 00
       5.50377e-40 3.2601e-41 3.62824e-40 7.39656e-40
000360 60 3c 00 80 f3 a8 07 00 c4 d2 07 00 5e e5 09 00
       -2.1658e-41 7.03456e-40 7.18457e-40 9.08801e-40
000370 c6 e6 03 80 0e f9 01 80 0a 76 03 00 5a ae 0a 80
       -3.58292e-40 -1.8118e-40 3.17851e-40 -9.809e-40
000380 9c 53 02 00 4a f3 01 00 33 2c 0b 00 a9 de 05 00
       2.13664e-40 1.79111e-40 1.026046e-39 5.39053e-40
000390 94 07 06 80 61 af 0c 80 53 94 03 80 4e 79 01 80
       -5.53731e-40 -1.16494e-39 -3.28715e-40 -1.35351e-40
0003a0 4a b4 03 00 2d 24 06 00 4d 31 04 80 1f 89 02 00
       3.40182e-40 5.6399e-40 -3.85028e-40 2.32861e-40
0003b0 91 f3 00 80 45 57 02 80 8c 69 04 80 c8 94 01 00
       -8.7375e-41 -2.14977e-40 -4.05205e-40 1.45208e-40
0003c0 c5 60 02 00 3c a3 01 80 39 83 00 00 91 d9 00 80
       2.18385e-40 -1.50393e-40 4.7074e-41 -7.8048e-41
0003d0 c5 56 02 80 a7 76 01 00 3e 42 00 00 c6 24 02 00
       -2.14798e-40 1.344e-40 2.3763e-41 1.96863e-40
0003e0 69 5c 01 80 df 13 04 00 bc 8a 8e ba 55 c2 71 ba
       -1.24986e-40 3.7447e-40 -0.0010875086 -0.0009222378
0003f0 ac 63 8b ba ea 2a db ba 45 70 d0 ba a3 f9 bc b8
       -0.0010634563 -0.0016721163 -0.00159026 -9.011037e-05

localization.3.bias f4 [32]
000000 6f df 97 bb 7f 16 e4 bc a0 9f c6 bc ad 9e 73 8a
       -0.0046347897 -0.027842758 -0.024246037 -1.1729868e-32
000010 9b 60 80 ba d6 f3 73 bc 1e 20 1c bc e6 43 35 9f
       -0.0009794416 -0.014889678 -0.009529142 -3.8384405e-20
000020 ef a6 14 bc c7 a6 0a bd f3 2c a8 bc 49 5d 9c bc
       -0.009073003 -0.033850458 -0.020529246 -0.01908745
000030 cd 8f 0a b9 7c 62 ae bb 9d 87 fd a4 56 c9 1a bc
       -0.00013214276 -0.005321799 -1.09951e-16 -0.009447416
000040 3b 00 08 bc 8a 04 ad 3d da 98 f7 bc 69 79 8b bd
       -0.008300836 0.084481314 -0.030224252 -0.068102665
000050 e9 6e d2 af 3c 99 d3 bc d3 e0 48 b3 02 1e eb 3d
       -3.8277584e-10 -0.025829904 -4.6770605e-08 0.11480333
000060 c6 1b 37 bd 8e cd 0e bd 5a 6d cf 3d bc 26 73 bc
       -0.04470422 -0.034864 0.10128279 -0.014840778
000070 a6 f2 a0 bc ac 72 25 ba 6e aa 16 bb 31 7d 31 aa
       -0.019646954 -0.0006311338 -0.0022989768 -1.5764193e-13

fc_loc.0.weight f4 [32, 896]
000000 cc 03 bd b2 d6 5b 44 b1 9b 12 4e b2 b8 3c 20 b1
       -2.2004222e-08 -2.8573957e-09 -1.19950085e-08 -2.331758e-09
000010 ad b5 84 b0 9e a6 53 b1 66 2a 81 b4 bb 87 63 b4
       -9.655899e-10 -3.0799252e-09 -2.405897e-07 -2.1190401e-07
000020 ca 58 af b1 ab 5e c3 b3 be 2c fd b1 66 df 82 b2
       -5.1032645e-09 -9.097615e-08 -7.3683557e-09 -1.5235582e-08
000030 cc e7 80 b1 a4 f6 17 ac db 99 53 b8 f5 c3 06 b8
       -3.7516426e-09 -2.1595304e-12 -5.044961e-05 -3.213059e-05
000040 da 4f d8 b7 22 37 9d b5 22 2c a2 b2 d5 bd df b2
       -2.578639e-05 -1.1713457e-06 -1.8879351e-08 -2.6046942e-08
000050 f8 5e b8 b1 38 1d 06 b1 fe d4 b1 ab 06 98 0b a2
       -5.3659015e-09 -1.9516175e-09 -1.2635724e-12 -1.8918493e-18
000060 c7 0f 8c ab c7 54 96 b2 13 1d d2 b3 bd 32 45 b1
       -9.951977e-13 -1.750085e-08 -9.7841756e-08 -2.8696114e-09
000070 4d 65 11 2c c3 2c dd ab 94 b6 1b 2b 77 a0 e7 2b
       2.0661973e-12 -1.5715418e-12 5.532044e-13 1.6458075e-12
000080 9f 0f 64 2c 15 ce a6 ac d0 4b 79 ac 5b 01 e4 2c
       3.240942e-12 -4.7408835e-12 -3.5427113e-12 6.4803002e-12
000090 83 af 6b ae 2f 48 0d 2d 4c cd 3f 30 d4 80 a9 30
       -5.35887e-11 8.03095e-12 6.977714e-10 1.2332984e-09
0000a0 e2 27 b5 ae a1 4b 74 ad 4e 32 e3 ab d6 1a cf 2c
       -8.238012e-11 -1.3886587e-11 -1.6143282e-12 5.8862732e-12
0000b0 84 e8 f9 ac 6f 18 ec aa 56 a1 8e ac e3 4a d7 ac
       -7.10282e-12 -4.1938976e-13 -4.0537946e-12 -6.1189816e-12
0000c0 89 49 93 2c fe 9a f0 2c 66 ec 08 2b 99 df 97 ab
       4.1861553e-12 6.838418e-12 4.8644975e-13 -1.0791256e-12
0000d0 eb b4 b2 aa db 1d 68 2b 3f 6c 01 ab 40 95 26 ac
       -3.174469e-13 8.246439e-13 -4.598023e-13 -2.367287e-12
0000e0 b5 a5 01 3a 45 73 70 bb d1 44 15 bc a3 fe e2 bb
       0.0004945652 -0.00366898 -0.009110645 -0.0069273277
0000f0 31 06 81 bb 11 34 e8 bb 5d 35 13 bc ae ac 06 bc
       -0.0039375057 -0.007086285 -0.008984891 -0.008219881
000100 75 b1 cc bb b0 54 03 bc 98 58 41 bc 2c 50 52 bc
       -0.0062467405 -0.008015797 -0.011800908 -0.012836497
000110 c9 24 1d bc 84 68 8b bc bf 57 4a bb b0 4b 7b bb
       -0.00959129 -0.01701761 -0.0030875055 -0.0038344674
000120 64 03 b4 bb 8f 2a 34 ba 92 c4 13 bb 1c 34 01 bb
       -0.0054935683 -0.0006872797 -0.0022547585 -0.0019714897
000130 6c 10 e6 ba 58 58 97 bb 32 eb 7d bb b3 51 85 bb
       -0.0017552502 -0.0046186857 -0.0038744924 -0.004068577
000140 7d 26 60 bb 7e 6f 82 bb bc 10 50 bb e0 71 e3 bb
       -0.0034202628 -0.003980576 -0.0031748256 -0.006941065
000150 c6 59 04 80 df 4c 04 80 1c 8b 03 00 dd 1b 01 00
       -3.99547e-40 -3.94918e-40 3.2541e-40 1.01831e-40
000160 23 60 04 00 96 11 01 00 ff e7 00 00 8f fd 00 00
       4.0183e-40 9.8144e-41 8.3225e-41 9.096e-41
000170 83 ba 01 80 46 fa 02 00 8e 07 01 80 32 76 04 00
       -1.58743e-40 2.73452e-40 -9.4546e-41 4.09742e-40
000180 b4 6a 02 80 26 ca 02 00 70 76 01 80 75 47 03 80
       -2.21949e-40 2.56188e-40 -1.34323e-40 -3.0114e-40
000190 bd af 01 80 81 0c 02 00 c2 fb 03 80 5d 81 01 00
       -1.54879e-40 1.88157e-40 -3.6582e-40 1.38242e-40
0001a0 f7 29 01 00 36 a7 03 80 eb 4a 04 00 f8 e6 01 80
       1.0689e-40 -3.3549e-40 3.94217e-40 -1.74691e-40
0001b0 a9 3d 02 80 7f 18 00 00 0f e4 02 00 e0 36 00 80
       -2.0579e-40 8.788e-42 2.65483e-40 -1.9685e-41
0001c0 4c 1f ec 2f 17 24 58 30 0b 0a 00 32 e3 85 64 30
       4.2950388e-10 7.863163e-10 7.452864e-09 8.313618e-10
0001d0 e5 43 71 34 1a 5d d1 33 5f 04 2c 34 49 43 53 35
       2.2469574e-07 9.749256e-08 1.6020338e-07 7.870154e-07
0001e0 71 c2 c8 35 5b 0d 61 36 05 ba c3 36 40 a8 23 36
       1.4957751e-06 3.3535387e-06 5.8331084e-06 2.4386827e-06
0001f0 cf a6 01 35 e6 ae 08 33 89 12 57 38 30 92 72 38
       4.8298983e-07 3.1824037e-08 5.1277257e-05 5.7833444e-05
000200 f1 21 67 38 a2 9c 41 37 11 09 21 35 e7 7d c0 31
       5.5106302e-05 1.1540165e-05 5.999037e-07 5.602249e-09
000210 55 46 d0 2e 52 b7 34 20 8f 2c 0a 2f fb 03 d5 34
       9.4712384e-11 1.5307249e-19 1.2566857e-10 3.9677238e-07
000220 1d 5d 64 37 98 47 bc 36 cc be bb 33 94 3f ef 34
       1.3611539e-05 5.611171e-06 8.742572e-08 4.4563478e-07
000230 03 72 9d bb ee 61 6a bb 8e 31 57 bb 8c f9 5e bb
       -0.004804851 -0.0035763937 -0.0032835933 -0.0034023253
000240 ca 36 ba bb cf d9 c8 bb 27 72 c6 bb e6 8b f0 ba
       -0.005682801 -0.0061294804 -0.0060560885 -0.001835224
000250 01 fb 92 ba 0a d1 04 bb 9c b2 54 bb 07 27 65 bb
       -0.0011213721 -0.0020266199 -0.0032455092 -0.003496589
000260 5d eb b5 bb 5f cf c2 bb 58 96 94 bb 4f 3c 0c bb
       -0.005551739 -0.0059451307 -0.004534524 -0.0021398251
000270 03 b6 76 bb ee 6b 0d bb 95 d8 3c bc ba cc b1 ba
       -0.0037645109 -0.0021579224 -0.011526247 -0.0013565042
000280 52 fe 19 bb 3c 4c cd ba 16 56 d2 ba cd fb 83 bb
       -0.0023497534 -0.0015662978 -0.0016047384 -0.0040278197
000290 a8 37 7c bb 6c 37 a7 bb 47 a3 fa bb 93 ee 0f bc
       -0.0038485322 -0.0051030423 -0.0076488587 -0.008784908
0002a0 2b 2b 58 bb 95 83 b8 39 59 63 11 39 b2 d3 81 3a
       -0.0032984714 0.0003519325 0.00013865287 0.0009905009
0002b0 f3 b8 fa b9 78 e6 a8 3a ae 58 21 3b ee 39 8a 3b
       -0.00047821514 0.0012886068 0.0024619508 0.0042183315
0002c0 17 81 a1 3a 9c 21 f3 3a fc 61 4c 3a 10 b9 0b 3b
       0.0012321797 0.0018549445 0.0007796583 0.0021320023
0002d0 e4 d0 15 3b 65 1b 4a b9 b1 b0 81 bb e6 36 d6 b9
       0.0022860104 -0.00019274426 -0.003957831 -0.00040858163
0002e0 27 9a 61 3b 96 67 86 3b 84 b9 35 3b 9b ea 0e 3b
       0.0034424157 0.004101704 0.0027728984 0.0021807316
0002f0 ff b5 08 3b 88 3e fb 3b cd c9 53 3b 0a fd ab 3a
       0.0020860431 0.0076673664 0.0032316328 0.0013121676
000300 05 0f d7 39 69 a4 7c 3a 92 17 2f ba 89 fb 3e bb
       0.00041019186 0.0009637536 -0.00066792325 -0.0029141626
000310 97 a6 03 00 79 68 00 00 52 12 01 00 fc 71 01 80
       3.35268e-40 3.7478e-41 9.8408e-41 -1.32725e-40
000320 73 17 02 80 8c a9 03 00 d6 c4 df 93 d6 c2 03 80
       -1.92083e-40 3.36328e-40 -5.648721e-27 -3.454e-40
000330 41 79 01 80 c6 47 03 00 d1 2c 02 80 58 df 2d 12
       -1.35333e-40 3.01254e-40 -1.99748e-40 5.4864467e-28
000340 d5 f3 00 80 8f 6a 61 80 90 33 01 00 1f 8d 00 00
       -8.747e-41 -8.946269e-39 1.10333e-40 5.0625e-41
000350 bb d8 00 00 fd 8f 00 00 40 7e 3a 90 dc 41 d8 95
       7.7748e-41 5.1653e-41 -3.6779292e-29 -8.734561e-26
000360 7e 53 d2 8e a3 b4 03 80 a2 71 02 00 80 0f bd 98
       -5.1849397e-30 -3.40307e-40 2.24435e-40 -4.8871006e-24
000370 f0 c7 00 00 3f ac 03 80 93 19 04 80 a3 36 01 00
       7.1724e-41 -3.37297e-40 -3.76516e-40 1.11435e-40
000380 8a aa 46 bc 40 f7 52 3c fb 0d 97 3c 59 08 21 bb
       -0.012125621 0.012876332 0.018439284 -0.0024571626
000390 6c 17 f2 3a b3 d2 38 bc 08 74 55 bd 3b 9f 3a bd
       0.0018470115 -0.011280703 -0.05211261 -0.04556201
0003a0 b2 fc 25 bd c4 3b e3 bc 01 aa 2d bc 8b fb 80 3c
       -0.040524192 -0.02773846 -0.010599614 0.015744945
0003b0 c1 c8 7f bc 1c 4b 3c bd 1a d2 ad 3b 5a 4f a3 bc
       -0.015611828 -0.045970067 0.005304587 -0.019935299
0003c0 42 fe 77 bc e8 22 99 bc ea 42 e8 bc aa 3d 30 bd
       -0.015136303 -0.018693402 -0.02835222 -0.043027557
0003d0 b1 bd 4c bd 41 76 7a bd 3a 01 a6 bd 13 ac 96 bd
       -0.04998559 -0.061147932 -0.08105703 -0.07357039
0003e0 4e 8d 28 bd bf 1d 46 bd b5 f4 71 bd fc b0 b4 bb
       -0.041150384 -0.04836821 -0.05907126 -0.0055142622
0003f0 99 a7 4e 3b 8d c2 6c bd cd 48 19 be df 1f 53 be
       0.0031533001 -0.057802726 -0.14969178 -0.20617627

fc_loc.0.bias f4 [32]
000000 c0 f5 ed 3e 59 5a c0 bd 83 ec 0d 3e 8f 84 0e bb
       0.46476555 -0.093922324 0.13859753 -0.0021746492
000010 09 72 e4 3d 00 e1 b4 bc fc 38 3a 3d 32 ec 22 b8
       0.11154563 -0.022079945 0.0454645 -3.8843784e-05
000020 48 a5 62 3e 39 01 12 a1 65 a7 15 bd 8e 29 c4 ab
       0.22133362 -4.946834e-19 -0.036536593 -1.3938171e-12
000030 8a 8c b4 bc 66 52 57 bd 27 d2 db bd 6f 6e 45 bd
       -0.02203967 -0.052568816 -0.10733443 -0.04820102
000040 8c 0f b4 3e 6a cd d3 3e 10 41 0a 3e 69 c2 28 be
       0.3516811 0.41367656 0.13501382 -0.16480412
000050 18 61 0c bd dd 65 e5 b2 ee e1 c3 bc 97 07 cc bc
       -0.034272283 -2.670543e-08 -0.023911443 -0.024905963
000060 bb 39 52 bc 8f 56 46 ae 44 75 9f 3e b1 01 e6 bd
       -0.012831147 -4.5096867e-11 0.31144154 -0.11230791
000070 2e ee ed bd 6e a1 81 b7 c0 a2 4f 3e ad 61 eb 3c
       -0.11617695 -1.545317e-05 0.20276928 0.028733099

fc_loc.2.weight f4 [6, 32]
000000 84 fd 83 bc 14 87 54 3c 34 62 1b 3d 4e 87 00 2b
       -0.016112097 0.012971658 0.03793545 4.566251e-13
000010 c8 b0 bb 3a 48 28 48 3c 26 fd 00 bc f2 a7 73 30
       0.0014319653 0.012216635 -0.007872855 8.864155e-10
000020 55 a3 d1 bd f9 48 65 8a 66 af 0c 3e 8c fc d4 2f
       -0.10236231 -1.10396736e-32 0.13738784 3.874202e-10
000030 e7 2c 79 3d 49 48 ff 3c cc 25 57 3d af 0f 29 3d
       0.060833838 0.031162398 0.05252628 0.041274723
000040 cc 91 18 bd 8e cf 0e 3d 91 91 1b 3d fb 13 55 3d
       -0.037248418 0.03486591 0.03798062 0.052021008
000050 9f 6f c8 b8 b3 3e ae 82 bc f2 1a 3c ce 14 65 bc
       -9.557534e-05 -2.560299e-37 0.009457286 -0.013982011
000060 6f ff 2e 3d fe ab 22 34 d4 7b f8 3c aa ed f3 3c
       0.04272407 1.5149996e-07 0.030332483 0.029776413
000070 99 2f 94 ba b2 e8 d0 ba 08 63 8a bc 88 7e 88 3d
       -0.0011305689 -0.0015938489 -0.016892925 0.06664759
000080 a7 66 43 3e 72 1d 0c bb 08 b9 37 3d b9 a3 cd 9b
       0.19082128 -0.0021379855 0.044854194 -3.4020208e-22
000090 ce 71 f8 3c c1 de 44 bc 50 c5 31 3d 48 8d 83 31
       0.030327704 -0.012015999 0.043401062 3.8286636e-09
0000a0 05 e0 0a be 4a 4b 01 80 35 d1 9a bc 04 44 20 2b
       -0.13562019 -1.18844e-40 -0.018898586 5.693781e-13
0000b0 15 b7 ea bd c0 76 e3 bb 0d 9c 9e 3b 7b a7 0b 3d
       -0.114607014 -0.0069416463 0.00484038 0.03409527
0000c0 e6 81 c8 bc af 6a 56 bd 3c 68 e9 bd b6 46 8c bc
       -0.024476003 -0.052347835 -0.11396834 -0.017123561
0000d0 a5 e0 df ba ed e1 c5 82 8c 00 bc 3c 2b ca a3 bc
       -0.0017080499 -2.9076223e-37 0.02294948 -0.019993862
0000e0 8d cd 76 3d be f1 c1 ae dd 79 9e 3e 48 2b 28 bd
       0.060254622 -8.819566e-11 0.3095235 -0.0410569
0000f0 fd ec a9 bc 4c 90 a0 b9 9b c5 b9 bc 0e da a5 bd
       -0.020742888 -0.00030625088 -0.022677233 -0.08098231
000100 e6 99 16 3c e5 68 a9 3c a3 e3 13 bd 7c 36 3a 34
       0.009191966 0.0206799 -0.036105763 1.7342421e-07
000110 c9 19 8d bd 6a fe de 3c 82 2f ad 3c 61 14 95 38
       -0.06889684 0.027220923 0.021140818 7.1086695e-05
000120 c3 b5 38 bb e0 eb 00 80 95 89 a1 bd cd 29 60 34
       -0.002818451 -8.4616e-41 -0.0788757 2.0876833e-07
000130 7b 30 e0 3d 22 37 d8 bb 12 e6 f6 3c 6a ee 72 bc
       0.10946747 -0.006598369 0.030139003 -0.01482735
000140 3f 6d 92 bc 52 8b 31 bd 58 36 af bd b6 12 54 3d
       -0.017874358 -0.043345757 -0.08555287 0.051775657
000150 68 36 9f 3c df 49 21 86 46 da 9c 3c 2d d6 1e 3d
       0.019435123 -3.0335006e-35 0.01914705 0.038778473
000160 4a 13 ab bc 7c e7 3c ba 21 ed b3 bd 12 29 1b bb
       -0.020883221 -0.0007206125 -0.08785463 -0.0023675603
000170 c0 2a 0f bd 69 4e a4 bb 7d f0 17 bc 16 3e f3 bc
       -0.03495288 -0.00501423 -0.0092736455 -0.02969269
000180 e7 05 a6 3e 4c 65 7d 3b 07 6c 0c bd 67 ac 03 80
       0.32426378 0.0038665114 -0.03428271 -3.37353e-40
000190 8d 6d 4d 3e 1c 65 fd 38 67 e2 cf bd 76 b5 ba 09
       0.20061322 0.00012082813 -0.10150605 4.4948516e-33
0001a0 48 68 59 3b f2 0b 04 00 9b fa 2c be af 80 08 04
       0.0033173729 3.71627e-40 -0.16892473 1.6045812e-36
0001b0 e2 fe 5a be b2 e0 1b 3d 00 ec e1 bd fe a0 13 3e
       -0.21386293 0.038056083 -0.110313416 0.14416882
0001c0 3a c2 13 bf 5d 70 0a 3f 50 ec df 3d 5a 69 9a 3d
       -0.5771824 0.540777 0.10933745 0.075396255
0001d0 07 67 9a a9 f9 2f f0 80 ba 56 79 b2 12 95 d1 bc
       -6.856846e-14 -2.2057728e-38 -1.4513427e-08 -0.025583778
0001e0 6d 2c 70 3c 61 d7 b6 a1 c5 65 a4 3e e6 23 42 bd
       0.014659029 -1.238981e-18 0.32108894 -0.047397517
0001f0 7c f2 a6 3d af 96 f8 a7 62 c0 64 3e 00 3a 0e 3d
       0.08151719 -6.89972e-15 0.22339013 0.03472328
000200 a9 35 65 be f2 34 7a 3d a4 40 32 3e 60 bf 02 00
       -0.22383751 0.06108565 0.17407471 2.52323e-40
000210 28 7e ea bd e7 9b 66 37 ac 2a 47 3e d9 b9 ab 19
       -0.11449844 1.3745367e-05 0.19449872 1.7756049e-23
000220 98 43 0a 3a 24 53 01 80 3c 18 61 3d b5 83 68 93
       0.00052743545 -1.21661e-40 0.054954752 -2.9347453e-27
000230 0e 08 99 3d 9e 8d 75 3d 9a c1 a3 3d f3 27 05 be
       0.074722394 0.05994951 0.07995911 -0.1300352
000240 ee d3 b7 be cf 23 ad be 48 14 be bd a6 13 7e 3d
       -0.35903877 -0.33816382 -0.09281212 0.062030457
000250 36 dc 72 37 47 71 41 82 b4 2b 63 31 66 db ad 3b
       1.4475596e-05 -1.421191e-37 3.305769e-09 0.0053056953
000260 2a e4 bc bd 61 0a 1c 91 77 c6 0d 3e 26 85 26 3e
       -0.09223206 -1.2309428e-28 0.1384524 0.1626173
000270 5a 9e 57 bd 45 cc eb ae ee aa 4c be 95 98 4f bd
       -0.05264125 -1.0722848e-10 -0.1998708 -0.050682623
000280 f8 11 c6 3c 7d a6 a1 bc 58 75 86 bc 31 7a 2c 04
       0.02417849 -0.019732708 -0.016413376 2.027461e-36
000290 2d 14 12 3d 43 91 0b bc f9 59 91 bd e5 8e d5 a0
       0.035663772 -0.00851852 -0.07097239 -3.6178163e-19
0002a0 05 55 af bd d3 d6 02 80 9b 35 ff bb 2e 72 b3 27
       -0.08561138 -2.60735e-40 -0.0077883727 4.9806274e-15
0002b0 ee 9d 64 be df 9d 89 3b be 19 0f bd 49 fa 96 bd
       -0.2232587 0.004199728 -0.03493666 -0.07371957
0002c0 ea c9 64 bd 94 1d a8 ba bc 72 4e 3d 1d 4c f2 3c
       -0.055856623 -0.0012826198 0.050402388 0.02957731
0002d0 4a ff 82 b5 17 bd 7a 02 5f 53 01 3b 8f 72 52 3d
       -9.760054e-07 1.8421365e-37 0.001973353 0.051378783
0002e0 5f 83 9d bb 2b 6f 5f a6 b2 4f f1 3d 94 91 93 bc
       -0.0048069204 -7.751933e-16 0.11782779 -0.018013753
0002f0 05 4b 07 3e 12 78 f8 a3 ac 35 0e bd 82 d9 30 ba
       0.13212211 -2.6939066e-17 -0.034719154 -0.00067462784

fc_loc.2.bias f4 [6]
000000 22 3c 82 3f 4d aa ca bb da 8a ca 3c d6 fe 03 3d
       1.0174601 -0.006184852 0.024724413 0.032225452
000010 c0 90 77 3f 9b dd ea 3b
       0.96705246 0.0071675307
