LPRNet/weights/STN_model_Init.pth (torch_old, 223371 bytes, 8 tensors)

localization.0.weight f4 [32, 3, 3, 3]
00000000: b469 22ba 2247 233d 9615 dcbd 583c 233e
00000010: 94d7 0abe a21e 8cbd e333 64bd ac8f d23c
00000020: 454d 09be 79de 81bd 47ec 903d 1ce3 f13c
00000030: 3497 08be 892a 323d 39b0 0cbd cab1 10be
00000040: 88ff 363b 9c2c c53d 976a 8d3d 633a 71bb
00000050: ad6e 8dbd 4776 103e 2032 08be 2135 493d
00000060: b9a7 eb3d 333f d93d b7c7 fdbd fd13 4cbd
00000070: 2348 773d fd16 21be 8a5a 3a3d 8a66 cebd
00000080: 0bfe 39bd 3d25 49be 81f9 20be 6be8 cc3c
00000090: eaa0 b03d 85d3 12be ee76 b03d 0b4d e2bc
000000a0: 2168 26be d2c4 1c3e 3a83 debd eeec 16be
000000b0: 8a9e a53d 4b4d adba ae42 013e d2ce a53e
000000c0: a446 5c3e 1652 5cbd 81ac 9d3c 662d 373e
000000d0: fa00 0d3e 3f1b 21bb 1415 2d3c b3a0 8ebd
000000e0: 5eb0 c8bd e2af 41bd 4e85 7fbd dd6a 283e
000000f0: 413d 1ebe 7dfb da3b 7eec 4b3b 0c3d 74be
00000100: f6fa 54be a6c7 c13d 05bb b2bd 8f7b 843b
00000110: 4030 35bd f7c4 043e a815 033d 4382 a33d
00000120: bd58 81bd a5b9 1cbe 826a 263e 2561 edbd
00000130: 5f8b 0c3d a534 8e3e 0ff9 db3d ea74 5b3e
00000140: 2fed 4d3d 7a2a 88bd 4a92 3d3e bdb2 4a3d
00000150: 30b9 11be fccb efbd 6ecd 1c3e 93a6 cd3d
00000160: a568 823b d152 cf3d d785 01be 2653 0c3e
00000170: f6fa 31be ab55 e93c 05fe 043d dda3 c8bd
00000180: 109f 76bc 96db a8bd 5a2f d13d af39 323e
00000190: da7b e7bd dde4 293e af8b a5bc b9d9 c73d
000001a0: a70c 2bbd 8e27 c03d 0b2b 88bd 5f0e 923d
000001b0: d8ee 1bbd 1c11 333c c96e 27be ddd8 84bd
000001c0: e5f4 053e 791b f03d 33d7 8dbd c033 e0bd
000001d0: ce2b 233e 936b 453d dcb8 1d3e a2ea e6bd
000001e0: f42c 0abe 1435 1a3e 5828 ddbd 77ba 4d3e
000001f0: 0853 5abe 5f54 77be 90ce 3d3e 9659 203e
00000200: 441f b93d d214 b03d 94e1 753e 70ee 38be
00000210: 4c01 173e 84de b7bd 3761 edbd 4ca5 29be
00000220: 154b 333d 2580 ca3d 4efa acbd cf14 d43c
00000230: 0da6 e8bd 0b8e c03c 56be bd3d 034f 703c
00000240: 586f 3c3d a63a ba3d 97c7 bfbd 8fba 79bc
00000250: e4e9 053e 5921 54bd d95a 393c 4ccb 75be
00000260: c039 863c bf12 ab3d 7e99 93bd a358 a93d
00000270: 779b 413d 8017 4cbd fd9b 9ebc a966 3d3d
00000280: 1d11 e43c fdc6 c43d b92f 0abe 69e3 a2bd
00000290: 7a17 f73b 4ac0 8abb b25a 5a3e 7edf 193d
000002a0: 121b c7bd 822a 22be 5d6e fdbc 67b2 83bd
000002b0: fc4f c7bc 3135 c83d e156 40bd ae65 4d3e
000002c0: ea0a bcbd 340e 253c 3f6e 57be 3add 14bd
000002d0: 7d21 943d 7da2 88bd 40dc 453e 300f 583d
000002e0: 5a6c de3d 7817 823d 24ca 393e 508d 45be
000002f0: 869a 06be 4e10 a43d 3663 b9bd 82a8 3a3d
00000300: e011 103d d0d4 ebbd 0a40 19be 1b33 82bd
00000310: 4815 e8bc f279 04bc f503 553d 2f74 3dbe
00000320: 8d64 563d 65b1 08be 01ef 68bd 1043 193e
00000330: 239e 8c3d 51c1 ffbc 3daa 4e3c b22c afbd
00000340: a9ba 263e 91c0 773e e132 c5bc 21ed c3bd
00000350: 131c 763d 7779 403e d534 b83d 109b 273c
00000360: 693d d2bd 01e7 2dbe 390a e9bc 3481 b3bd
00000370: b4b6 8dbe d126 a73d 813b 18bd d8f8 ce3c
00000380: 0ffe b23d 9db5 eb3d 73a7 93bd d683 203d
00000390: 26cb 843c e6bf debc 329a e9bc d8b0 8f3b
000003a0: 0cc4 acbd 6fc4 0abe baa5 02be cb8f 373e
000003b0: 4e4f 4bbd 6b35 303e d97f 15bd 0c36 473e
000003c0: aef2 0d3e 8665 adbc 8216 453e 148f 173d
000003d0: 8e68 a63d 2469 493e d1f9 183e cb5f 483d
000003e0: ae52 323e fc81 7ebe 1a97 503d 9290 b0bc
000003f0: 5ca4 5fbd 4492 41be 89de 693e 4578 fdbd
-0.00061955606 0.03986276 -0.10746305 0.15940988 -0.13558799 -0.0684178 -0.055713546 0.025703274
-0.13408382 -0.063412614 0.07076316 0.02952724 -0.1333893 0.043497596 -0.034347747 -0.14130321
0.0027923305 0.09627649 0.06905096 -0.0036808483 -0.06905875 0.14107619 -0.13300371 0.049122933
0.115066 0.106077574 -0.12391608 -0.04982375 0.06037153 -0.15731426 0.0454965 -0.100781515
-0.04540829 -0.19643112 -0.15720178 0.02501317 0.08624442 -0.14338501 0.08616434 -0.027624628
-0.1625066 0.15309456 -0.10864873 -0.14738819 0.080868796 -0.0013221888 0.12623093 0.32384354
0.21511322 -0.05378922 0.019247295 0.17888412 0.13769904 -0.002458289 0.010564107 -0.06964245
-0.09799264 -0.047286876 -0.06238299 0.16447015 -0.15453054 0.006682812 0.0031116302 -0.23851413
-0.20798859 0.09461908 -0.087270774 0.0040430496 -0.044235468 0.12965761 0.032003075 0.0798383
-0.063157536 -0.15305193 0.16251567 -0.115907945 0.034312602 0.2777454 0.107408635 0.21431318
0.050275024 -0.06648727 0.18512836 0.049486864 -0.142308 -0.11708829 0.1531274 0.10041537
0.0039797598 0.10123218 -0.12648712 0.13703594 -0.1738089 0.028483232 0.032468814 -0.097968794
-0.015052572 -0.08245008 0.1021411 0.17404817 -0.1130292 0.1659121 -0.020208208 0.09758324
-0.041760113 0.093825445 -0.06648835 0.07131647 -0.038069576 0.010929372 -0.16350855 -0.06486676
0.13081701 0.1172399 -0.069258116 -0.109473705 0.15934679 0.048198294 0.1540255 -0.112752214
-0.13493711 0.1505931 -0.107987106 0.20090662 -0.21320736 -0.24153279 0.18535829 0.15659174
0.090391666 0.08597721 0.24011832 -0.18059707 0.14746588 -0.08977988 -0.11590808 -0.16566962
0.043772776 0.09887723 -0.08446179 0.025888829 -0.11359797 0.023505231 0.09264819 0.014667275
0.046004623 0.090932176 -0.093642406 -0.015242233 0.13077503 -0.051789615 0.011313164 -0.24003333
0.01638496 0.08353185 -0.07207011 0.08268859 0.047267403 -0.0498271 -0.01936149 0.046240482
0.027840191 0.096082665 -0.13494767 -0.07953531 0.0075406404 -0.0042343484 0.2132366 0.037566654
-0.0972196 -0.15836528 -0.030936414 -0.06430512 -0.024330132 0.097757705 -0.046957854 0.20058319
-0.09181769 0.010074187 -0.2103815 -0.03634379 0.0723295 -0.06671617 0.193223 0.05274886
0.1086051 0.063521326 0.18143517 -0.19292188 -0.13144884 0.08010922 -0.09052126 0.045570858
0.035173297 -0.115152 -0.14965835 -0.06357404 -0.02833046 -0.008085715 0.052005727 -0.18501352
0.052341986 -0.1334892 -0.056868557 0.14966989 0.068661 -0.03122011 0.01261383 -0.08553447
0.16282143 0.24194552 -0.024072113 -0.09566713 0.060085367 0.18796335 0.08994452 0.010229841
-0.10265619 -0.16982652 -0.028447257 -0.08764878 -0.27678454 0.081617005 -0.037166122 0.025265142
0.08739864 0.11509249 -0.07209673 0.03918823 0.01621015 -0.027191114 -0.028515909 0.004385095
-0.084358305 -0.13551496 -0.12758532 0.17925946 -0.049636178 0.17207877 -0.03649888 0.19454211
0.13862106 -0.021166574 0.19246867 0.037001684 0.08125411 0.19669014 0.14939047 0.04891948
0.17414352 -0.24854273 0.05092535 -0.021553311 -0.054600105 -0.18903452 0.22838797 -0.12376455

localization.0.bias f4 [32]
00000000: d1d0 acbe 34c5 b9be a7ac 293e 74f6 09bf
00000010: 21c3 c7be a6b5 d7be 8156 cebe 5d76 98be
00000020: e3c6 c8be 7120 e2be b1a4 84bd 4179 9d3d
00000030: 38f4 fbbe d6ea bdbe 92ca dfbe 43ad bcbe
00000040: 4e0d debe a26c 03bf a6ad bdbe e39d dabe
00000050: 413b 13bf c365 bbbe 2d5f f0be e8e0 cabe
00000060: b59c 82be 23dd d2be 4c17 01bf e555 cebe
00000070: 2c87 adbe 7f05 73be 34ae c7be 8bb3 ebbe
-0.33753064 -0.36283267 0.16569768 -0.5389168 -0.3901606 -0.42130774 -0.40300372 -0.29777804
-0.3921424 -0.44165376 -0.06476725 0.07689143 -0.49209762 -0.37093228 -0.43709236 -0.36850938
-0.43369526 -0.51337636 -0.37046546 -0.42698583 -0.5751229 -0.36601076 -0.46947613 -0.39624715
-0.25510183 -0.4118434 -0.50426173 -0.40299907 -0.3389219 -0.23732565 -0.39000094 -0.46035418

localization.3.weight f4 [32, 32, 5, 5]
00000000: da8a 9fbc cdf6 3f3c 1350 c93c 7b50 3abc
00000010: 1732 db3b b3d1 a13c d60f 1d3d 1d3f 463d
00000020: ded0 13bc f0a7 d33c 1478 6f39 1399 a13c
00000030: 9e71 893c 63bb 52bc e574 7cbc 3106 c1bc
00000040: 1a75 353c f116 583d 1057 aabd 75ef d9bc
00000050: b7c1 d1bb ce8c 343d 8467 07bc 2fa9 5cbd
00000060: 23f0 f23a 2dd4 15bd 0184 84bb 630f 4b39
00000070: 55f2 453b 56cf 963c 66be 323c a653 f4bc
00000080: a54b a53c 5406 c33c 71c9 7cbc 5798 6e3c
00000090: bf99 a1bc 10f9 acbc cabf 01bd a4f1 d83c
000000a0: f46c f4bc 77fc 9a3c b1a5 4c3b d881 04bd
000000b0: eb8f d13b 621f 03bd bfa8 9bbc 36c4 29bd
000000c0: 5957 e03c df14 d3bc bd85 02bd 44d2 16bd
000000d0: 01d1 a9bc 043b d3bc 4d50 13bd 21a1 533c
000000e0: ab2f 8fbd 28b9 c93b 88f6 98bd 05dc fbbd
000000f0: 4d68 97bd 3cbb 2d3c c40c a9bd bae2 c5bd
00000100: 6614 92bd 5f6b e43b 674a a9bc 65ec 59bd
00000110: cab9 babd ab20 c8bd 6c29 cebd 5e9a 85bc
00000120: f637 66bd d35f 2cbd 96c4 91bd 35e6 c13c
00000130: 488f a13b 8b36 e0bc a514 e33c a835 503c
00000140: f86b 2ebc 2d11 37bc e9f5 ddbc ea16 7abc
00000150: 75d0 5dbb d25e 29bd 2f90 abbc dd21 55bc
00000160: 271d 1bbd 9d18 0ebd 7d6b e23b 7964 84bc
00000170: c74a dd3c 2e1d f73b 384b 21bc b5af 9539
00000180: 6330 4a3c 2af1 2b3b 61f0 2d3c e404 6b3c
00000190: 9565 f6bc f67d 0f3d 9d11 d0bc 49b3 26bb
000001a0: e24d a2bc fd3c 8dbd 98ab 6dbd 89ff c3bd
000001b0: 15af 40bc 89b0 21bd 5ef3 163c 2550 1e3c
000001c0: 50b9 20b6 9d0d 273d 0b42 87bc 8af1 a13c
000001d0: 99c8 5cba 2236 023d 67ce 133c 57e3 2cbd
000001e0: 65d9 9dbc 770e 993c e6a6 95bc 3dcf 783c
000001f0: c6e2 5fbb 14f8 20bb eea7 4bbb a590 483c
00000200: 5a1c 8b3c cb74 3b3c dcaf be3c 9375 f33b
00000210: 4dcc ce3c 4369 113b 01df d53c 87e6 bd3c
00000220: 58f6 353c f99f c6bc 714d f83c 05b9 c8bc
00000230: 4ffb b63c 70f6 d3bc 8e79 9dbb bfc1 883c
00000240: 43f4 dcbc fb0e 0abd 41ba 01bd 2e23 2abd
00000250: 80ad 18bd f571 c3bb 1880 2abd 8088 8fbb
00000260: 92e9 cf3c c153 18bd f057 cc3c e03c 9cbc
00000270: 7686 32bc 20e7 d83b 1bf2 c4bc e298 8bbc
00000280: f39c d1bc 8be3 29bc 79ec 09bd f60c 1dbc
00000290: 9881 8abc 777e 2cbd 6753 1dba 2f0b 05bd
000002a0: 1bd9 a8bc d080 9e3c 93dd 18bd dd58 2cbd
000002b0: 31ea ab3c dbc1 f13b 80b6 c93b 3b2b 1abc
000002c0: be11 08bd a74b 7dbd 514e 03bc c7c8 b5bc
000002d0: 06a8 943c 1ff9 edbc 82ee 23bc 660f 863c
000002e0: d695 863c f48c 7cbc 9a5a fb3c 48ef bf3c
000002f0: 3e94 83bc 1ca0 68bd f012 b6bd 4a4b aabb
00000300: a800 2fbc 1be5 65bb 6cce adbc 5ec7 96bd
00000310: 4b73 eabb 3874 74bd 591b 853b 0d4e 36bd
00000320: feed cebc 491f 75bd b3bd 66bd fa76 1dbc
00000330: 589f 52bd e37d ccbc afb5 b83b 7536 85bb
00000340: 7224 99bc c752 69bd 4d2a 0fbc add4 2fbd
00000350: 87b7 e1bc 1649 05bd d42a 46bc 50ff 21bd
00000360: 5b79 52bd 86e2 cdbc b7e1 9abc d944 083a
00000370: cb71 1cbb 1d6d 2dbd f846 abbc 4960 27bd
00000380: e421 bebb 8f5a 8fbd f836 c2bd ff5b 8bbd
00000390: db6a b3bd 477a dabc 4d2f e0bd b03c e1bd
000003a0: 7973 bbbd 71ce 69bd c5b5 5dbd c0b0 59bd
000003b0: 46fe 31bd d6b4 9dbd 9884 36bd 4623 5bbc
000003c0: 8f94 c4bd 6b26 9abd 9782 f4bc 2075 83bd
000003d0: d8ca c0bc 71d4 bfbd b312 acbb 75dd f2bc
000003e0: 6a81 1fbd 2fb4 48bc b750 31bd 5ba4 a8bc
000003f0: c026 e4bc 2b7c b03b ee7e f53c 89fe e6ba
-0.01947539 0.011716557 0.024574315 -0.011371727 0.006689321 0.019753313 0.03834518 0.048400033
-0.009021966 0.025836915 0.00022837549 0.019726312 0.01677781 -0.012862059 -0.015408729 -0.023562523
0.0110752825 0.052756254 -0.08317387 -0.02660344 -0.0064012664 0.044079594 -0.008264426 -0.053872284
0.0018534701 -0.0365793 -0.0040440564 0.0001936532 0.0030204256 0.018409412 0.010909652 -0.029825043
0.020177672 0.023806728 -0.015428887 0.014562688 -0.019726632 -0.021114856 -0.031677045 0.02648241
-0.02983711 0.018919213 0.003122669 -0.03235039 0.00639533 -0.03201235 -0.019001363 -0.041446887
0.0273854 -0.025766788 -0.031865824 -0.03682162 -0.020729544 -0.025784977 -0.035965253 0.012916834
-0.06991514 0.0061561055 -0.07468897 -0.12297825 -0.07392941 0.010603722 -0.08254388 -0.09662385
-0.07132797 0.0069708074 -0.02066536 -0.05320396 -0.09117468 -0.09771856 -0.10066494 -0.01630896
-0.056205712 -0.042083573 -0.07117574 0.023669342 0.0049304105 -0.027369758 0.027719805 0.012708105
-0.010645859 -0.011173529 -0.027094798 -0.015264252 -0.0033846174 -0.041350193 -0.020942776 -0.013008562
-0.0378696 -0.03469144 0.0069097863 -0.01616119 0.027013196 0.0075413203 -0.009844594 0.00028550407
0.012340638 0.0026236274 0.010616393 0.014344428 -0.030077735 0.035032235 -0.025399024 -0.0025436452
-0.019812528 -0.06896398 -0.058024973 -0.09570224 -0.011760493 -0.039474998 0.009213297 0.009662663
-2.3949724e-06 0.040784467 -0.016510984 0.019768495 -0.00084222254 0.031789906 0.009021378 -0.042208996
-0.0192687 0.018683655 -0.01826806 0.015186128 -0.0034162267 -0.0024561929 -0.0031075436 0.012241517
0.016981293 0.01144142 0.023277216 0.0074297874 0.025243903 0.0022187985 0.026107313 0.023181213
0.011106096 -0.024246203 0.030310364 -0.024502287 0.02233663 -0.025874346 -0.00480575 0.016693948
-0.026971942 -0.033705693 -0.031671766 -0.041537456 -0.037274837 -0.0059645125 -0.041626066 -0.0043802857
0.02537993 -0.03718925 0.024944276 -0.019071996 -0.010896316 0.006619349 -0.024041226 -0.017040674
-0.025587535 -0.010369192 -0.033672784 -0.00958561 -0.016907498 -0.042112794 -0.00060015026 -0.03248137
-0.020611336 0.019348532 -0.037320685 -0.042076934 0.020985695 0.0073778457 0.006155789 -0.009409721
-0.033220045 -0.061839726 -0.008014278 -0.022190465 0.018146526 -0.029049454 -0.010005595 0.016364764
0.01642887 -0.015414465 0.03068285 0.023429528 -0.016061898 -0.056793317 -0.08890331 -0.0051969634
-0.010681309 -0.0035079184 -0.021216594 -0.07362245 -0.0071548573 -0.059681147 0.004062098 -0.04450803
-0.025259968 -0.05984429 -0.056333255 -0.009610886 -0.051421493 -0.024962371 0.0056368927 -0.0040653297
-0.018694136 -0.05696371 -0.008738113 -0.042927433 -0.027553333 -0.032540403 -0.012095172 -0.039550126
-0.051385265 -0.025132429 -0.018906457 0.00051982474 -0.0023871537 -0.042340387 -0.020907864 -0.04086331
-0.00580238 -0.069996946 -0.09483141 -0.06804656 -0.087606154 -0.026669635 -0.10946522 -0.10997903
-0.09152884 -0.057081643 -0.054128427 -0.053147078 -0.043455385 -0.07700507 -0.044560045 -0.013375109
-0.09598648 -0.07526859 -0.029847426 -0.06418824 -0.023534223 -0.09366692 -0.0052512526 -0.029646615
-0.03894178 -0.01224999 -0.043289866 -0.020586183 -0.027850509 0.0053858957 0.029967751 -0.0017623465

localization.3.bias f4 [32]
00000000: b77c d4bd 19e4 52bd 5cf9 abbd 557f f2bd
00000010: 0368 d9bd 7201 52bd 0e0f 95bd 7318 25bd
00000020: d070 91bd 74ca 563c c54e 51bd f5f5 c1bc
00000030: 4e1a 27bd d7a4 83bd 80ac a5bd affd c6bd
00000040: 5185 3dbd 15f3 113e c277 49bc a177 7abd
00000050: 3556 b6bd 84ef 09bd 08e6 c4bd 2a31 81bd
00000060: dc39 38bd 0e19 6bbd 4ca6 3d3e 65ca a4bd
00000070: f7ce 9cbd d8e8 a6bd e3f2 74bd a26c e8bd
-0.1037535 -0.051487062 -0.08397171 -0.11840693 -0.10615542 -0.05127091 -0.07278262 -0.04030652
-0.071015954 0.013109792 -0.05110051 -0.023676852 -0.04079657 -0.06427925 -0.080895424 -0.09716355
-0.04626972 0.14252885 -0.012296619 -0.061149243 -0.089031614 -0.033675686 -0.096141875 -0.063082054
-0.044977054 -0.05739694 0.18520468 -0.08046416 -0.07656663 -0.0814988 -0.059801947 -0.11348845

fc_loc.0.weight f4 [32, 896]
00000000: 554c adbc b082 1a3d 2a76 cabb 0fea 06bd
00000010: 57f0 5d3c 624e d1bc 68ff 38bc 86c1 fcbc
00000020: 3fe1 3d3c 431c 033c d329 a8b8 4c54 743a
00000030: a8ec 5ebd baba 113c f2c7 c7bc 21f6 94bc
00000040: d17b e1bc bc9c 383c 43c1 ddbc 372d c638
00000050: 7382 a4bb 4665 873c 4bbb 9a3c 81ff 17bd
00000060: ae1d bebb d582 833c 47bd 09bd 0a7a a6bc
00000070: 17a3 443c 84f6 06bd 3534 b9bc 3c18 dabc
00000080: 5541 87bd d7ac f33b 9a82 833d 18f3 593c
00000090: 063c 8dbd 17ad 60bc cd32 8dbc 392a 2ebc
000000a0: c5e0 02bc 5045 6c3d 2e54 0b3d 9e48 45bd
000000b0: 105a 9fbd 5e81 d7bd f978 74bd 561f 2f3d
000000c0: e5c9 0d3d a00d fabc af96 f6bd 2d88 0f3c
000000d0: baa7 8fbc 80c4 31bc 70c3 69bb 7076 973c
000000e0: 6aa0 af3b 5c9a 903c 98d5 9cbd 25f9 4cbd
000000f0: 7ff1 76bc 36d4 093c b9ad 183c 7241 2b3c
00000100: 7449 e9bc 454a 9cbc 5771 8bbd 59ca 6bbd
00000110: fe46 45bd 589e f3bd 4e1f 8c3d 8f82 54bc
00000120: 54bd 9bbd beac 5fbd ca07 b9bd ccd6 b7ba
00000130: b3f2 a13d ed6a b8bb 06f7 8a3d bed3 b1bc
00000140: 75d5 183d 50d3 dfbc b892 a4bd 3c04 30bd
00000150: a2e8 98bb 9417 923c 525f 22bb 44f0 e43c
00000160: 3faa 293d 22f8 7b3b 2a3f a3bc e6ec e13c
00000170: f0ac 06bc aecd 803d 1109 903d cabf da3b
00000180: bd31 3ebc 48c0 123d 8d42 e4bc 8faf abbc
00000190: 019a 9fbc cff2 6dbc 5fa2 043b 3848 e43b
000001a0: d313 543d 1ba5 8bbc f20e 473d 0a6b 90bc
000001b0: 1191 0fbd 4102 e4bc cdd9 99ba 7543 86bc
000001c0: d99d 1b3d ea9a 7cba c0ca b23c ac16 65bc
000001d0: 88b2 cfbb 0902 6b3c b274 2cbc e9f5 ab3c
000001e0: df7b ae3c cd65 64bc ceb1 283c 7217 76bc
000001f0: 3c53 883d 85d0 3e3b efc1 97bc fbc3 013c
00000200: 87f8 6f3c 449f 4a3d 033e e63c 8673 00bc
00000210: 215c 583b d4db c03c fdea b6bc bb12 523d
00000220: 57f8 0d3c 431a 903c c583 15bd 6309 cabc
00000230: 0ac3 d7bb de80 aa3c 0b47 de3c 2e13 703b
00000240: e391 3a3c 3c8c 9d3c 4081 273b c704 e2bc
00000250: 1672 3d3c 7b6f d13b 4ab1 65bc c593 38bc
00000260: dd44 4cbc f026 2dbc 5d85 ac3c f699 23bb
00000270: 36d1 65bc e118 f63c a2d7 c1bc 1e2c 5bba
00000280: 91d2 e13a 3547 22ba e962 63bc 66af 06bd
00000290: a418 843c 3221 3dbb 4b26 9ebb 10bb 913c
000002a0: b2e2 babd 4766 2b3c 2ac7 a7bc d684 9abd
000002b0: 3a64 cabc 5157 f3bc a233 f6b9 1b5a ef3d
000002c0: 7589 463d 7ec6 09bc 2a03 f0bc ab66 18bd
000002d0: 2021 a8bd 2e40 2e3d 25bd 84bd 44a8 933d
000002e0: e28e 923d 5f12 d8bc 34c7 893d 2427 afbd
000002f0: 31fb 4c3c 5cb8 4b3d 08af 99bc f756 bd3c
00000300: aa18 e33c 6671 963c 3ef4 38bd e7ae 9d3c
00000310: 761a 4dbd f579 02bd 7488 09bd 3d11 9a3c
00000320: b3fc 873c 8034 673c 01ff 4b3c a208 5fbd
00000330: 8241 a83c 9297 babb b169 143d 80cc a33d
00000340: f203 993d 5aa8 dc3d 264e 1bbd 3a93 3e3d
00000350: 7fd0 42bd e665 bbbc 2903 dbbc 054d 5ebc
00000360: 85b7 a7bb 01f8 69ba 8cf3 57bd 75a8 08bd
00000370: d1ee ddbc 49c8 943c 7034 323d a96b 44bc
00000380: 1cd3 b9bc 60b6 54bc 9bd0 41bc ba5c 223c
00000390: c279 983c e975 66bb 404d 32bd 905f 4bbc
000003a0: 18c9 a53c 8eb2 693c 1cf9 62bc fc61 b83b
000003b0: fe0e 2cbd 247a a9bc a598 a3bc 7b33 523a
000003c0: 160c 28bd 27dc 87bc f295 22bd 8dcf 8cbc
000003d0: d9f6 403c 5294 56bc 1c97 a7bc cb88 d0bc
000003e0: 5c6b 13bd 0279 2fbd 430d c6bc 196f 70ba
000003f0: 52b6 563d 0bed 9cba df4c 56be 7449 1ebe
-0.021154562 0.03772229 -0.006178637 -0.03293806 0.013546071 -0.025550071 -0.011291362 -0.030853998
0.011589347 0.008002344 -8.0186546e-05 0.00093204225 -0.05442491 0.008894617 -0.024387334 -0.01818377
-0.02752486 0.011267837 -0.027069693 9.449798e-05 -0.0050204336 0.016527783 0.018888136 -0.037108902
-0.005801878 0.016053597 -0.033627775 -0.020321865 0.012001774 -0.03294994 -0.022607902 -0.026622884
-0.06604258 0.0074363756 0.06421395 0.013302587 -0.06896214 -0.013713143 -0.017236138 -0.010630184
-0.00798816 0.05768329 0.034015827 -0.048164956 -0.0778085 -0.10522722 -0.05968568 0.042754494
0.03461637 -0.030524075 -0.12040459 0.008760494 -0.017536033 -0.010850072 -0.0035669468 0.018489093
0.005359699 0.01765173 -0.07657927 -0.05004229 -0.015072226 0.008412411 0.009318762 0.010452615
-0.028477408 -0.019078383 -0.06808727 -0.05756602 -0.048163407 -0.11895436 0.068419084 -0.012970581
-0.07604471 -0.0546081 -0.09034689 -0.0014025806 0.07907619 -0.005627981 0.06785397 -0.021707412
0.037312943 -0.027322441 -0.08035797 -0.04297279 -0.004666404 0.017833509 -0.0024776054 0.027946599
0.041422125 0.003844746 -0.01992758 0.027578782 -0.008219942 0.0628923 0.07032979 0.006675695
-0.011608538 0.035827905 -0.027863765 -0.020957736 -0.019482614 -0.014523222 0.0020238382 0.006966617
0.05177672 -0.017046502 0.048598237 -0.017629165 -0.035050455 -0.027833106 -0.0011737883 -0.016389588
0.037992332 -0.0009636121 0.021825194 -0.013982456 -0.0063384213 0.014343747 -0.010525869 0.020991283
0.0212993 -0.013940287 0.010296298 -0.015020238 0.06656501 0.0029115987 -0.018525092 0.007920261
0.014646656 0.049468294 0.028105741 -0.007840043 0.0033013897 0.023542322 -0.022328848 0.051287394
0.008665166 0.017590648 -0.03650262 -0.024662679 -0.0065845298 0.020813402 0.027133485 0.0036632526
0.011387321 0.019231908 0.0025559217 -0.027590169 0.011562845 0.0063914633 -0.01401932 -0.0112657
-0.01246759 -0.010568365 0.021059686 -0.0024963594 -0.014026931 0.03004116 -0.023662392 -0.0008360761
0.0017228891 -0.000619042 -0.0138785625 -0.032882117 0.01612503 -0.0028858897 -0.004826342 0.017789394
-0.0912527 0.010461397 -0.020480711 -0.07544868 -0.024705995 -0.029704722 -0.00046959246 0.11687108
0.048470933 -0.008409141 -0.029298384 -0.037207287 -0.08209443 0.042541675 -0.06481389 0.072098285
0.07156159 -0.026375948 0.06727448 -0.08552387 0.012511061 0.049736366 -0.01876022 0.023112757
0.027721722 0.01836462 -0.045154803 0.019248439 -0.050074063 -0.03185459 -0.033577397 0.018807048
0.016599989 0.014111638 0.012450934 -0.054451592 0.020539049 -0.005694338 0.036233608 0.0799799
0.07471456 0.10774298 -0.037916325 0.046527125 -0.04756212 -0.022875737 -0.026734905 -0.013568168
-0.005118313 -0.00089252 -0.0527225 -0.03336378 -0.027091416 0.01816191 0.04350704 -0.011988559
-0.022683673 -0.012982935 -0.011829521 0.009909803 0.018612746 -0.0035165495 -0.043530703 -0.012412921
0.02023749 0.014263762 -0.013853338 0.005626915 -0.042006485 -0.020688124 -0.019970248 0.00080185354
-0.04102715 -0.016584469 -0.03969378 -0.017188812 0.011777603 -0.013096886 -0.020457797 -0.025455853
-0.035991058 -0.04284001 -0.024176246 -0.0009171828 0.052419968 -0.00119725 -0.20927761 -0.15457708

fc_loc.0.bias f4 [32]
00000000: 3361 893e 3c9d 91bd 844b 313d def6 10bd
00000010: 8bc0 a7bd f6a2 f5bd 44b1 733d dc1a 2fbe
00000020: df80 403d f2cd 08be e3b4 7dbe 21d3 0ebe
00000030: 548f 0ebe a723 c2bd 913d b1bb 9056 583d
00000040: d001 083d b1fe f73d 584a 3e3c 762d 8bbd
00000050: 5613 2cbe 2608 f6bd f8bc 12be e8d7 49be
00000060: c03b 22be 4f2d b6bd ab6d eb3d 870b 5abe
00000070: 0786 3ebd 4a05 41be 9563 f63d a236 0fbe
0.2683197 -0.07110068 0.043284908 -0.03539168 -0.081910215 -0.11993973 0.059495226 -0.1710009
0.0469979 -0.13359812 -0.24776034 -0.13947727 -0.13921863 -0.094794564 -0.0054089506 0.052816927
0.033204854 0.121091254 0.011614405 -0.0679578 -0.16804251 -0.12013273 -0.14329898 -0.19711268
-0.15843105 -0.08895361 0.11495527 -0.2129346 -0.046514537 -0.18849674 0.120307125 -0.13985685

fc_loc.2.weight f4 [6, 32]
00000000: c1d2 90bd 5d3a b2bc 1da3 213d aeea 6b3d
00000010: 9ab1 9c3a bc24 edbb e60c 0ebc fb62 34bd
00000020: 71c1 77bd 4ecf 0fbc 148a 353d 16f8 eebc
00000030: a144 bdbb 2fab 053d 78b8 753d a795 6fbd
00000040: 4522 953b f9fc 943c 19a1 733c bc65 80bd
00000050: 35fb c43d 58ba 613c 1b1d 2d3d 44a0 e43b
00000060: 0df3 3cbc a50c 6a3d 4bc9 14be 76c7 1e3d
00000070: 5bcd 933c ad51 343c 65b8 dc3c a6f4 c4bc
00000080: 08d4 813e e77a 76bc b8ad 183d 233b eabb
00000090: ebc6 ba3b ac5e e73d c2c4 813d c0c7 a7bc
000000a0: 9d52 dcbd 988e 833d 5011 923c 14e1 d5bc
000000b0: cb45 9bbd 80e2 ae3c 6e6a 13bd 91a6 93bd
000000c0: e7c0 1dbd 4d42 c1bd c6ca a1bd fba8 af3d
000000d0: 6f09 5e3d 9f22 b5bc 4972 acbc a5d9 47bc
000000e0: 528c c33b 99ca 783c 1440 993e 318e 93bd
000000f0: 6bdb ccbb 2dcf 073d a85c 41bc ec20 0cbe
00000100: 8fd1 60bc 900c 263d 91f6 ffbc 2a14 d13d
00000110: ec2c 7cbc 4361 9f3c c845 21bc 1dac 2cbd
00000120: 3ead 6f3d 0316 1d3b d43f 2fbe b293 b8bc
00000130: 2ae2 9b3d 8625 9ebc 7e25 e6bb 4510 acbd
00000140: 2ba1 95bc 78b1 2dbd cdb2 8bbd 2118 eebb
00000150: bef9 50bd 7756 8c3d e76b e83c 9cf9 45bd
00000160: d4ce ec3c 54fd ecbb cb7f 233d cc03 0a3d
00000170: b99a d7bd ead2 06bd 9add 013d ced2 32bd
00000180: 21b5 083e 4efe 303c a545 b6bd d393 773c
00000190: d850 5b3e b025 83bc 373c 01be bb12 19bb
000001a0: 043c 3bbd 92aa bc3c 7bd9 783b d999 bf3c
000001b0: 9917 4bbe 5e64 5c3c a972 04bd a1ee cd3d
000001c0: 88f9 55be 2724 113e bd90 863c 09ce 943d
000001d0: 8faa 573d deaa 13be 6899 44bc f4ae 3a3d
000001e0: 40b1 89bd 2971 80bd d3f1 f43d 0dfd cebd
000001f0: 077e 70bd 7dec 033d 6f66 273d 8a43 15be
00000200: cb43 dbbe 5781 743d bcdc 6c3e f5ae ad3d
00000210: 9e76 0b3d 3c4f abbc 7642 063e 3807 a13c
00000220: 1eb9 1cbd db2c 253d 1038 463e 19c2 b53c
00000230: 0bfe 963d b42a 6fbd 02e6 613e 01aa 3ebd
00000240: 341d 8cbe 33c5 8cbe b354 18bd 7e79 323e
00000250: a0f1 293e 9474 43be 15db 033d a52c f03d
00000260: 8f7e 283e 983c 0fbc b715 403e 52fc 513e
00000270: 3fef 8bbe dddc 743d 6f28 a2be 9aa0 6ebe
00000280: c1a5 30bc 369d 8ebd d51a 89bd 46b4 dcbd
00000290: 21c3 43bd ae99 b13d b7dd 10be d425 cc3b
000002a0: 17c2 c4bc 561d 44b7 ed2d ce3d 5396 8b3b
000002b0: 89ac 45be c43a d8bc 2457 8e3d 6124 243d
000002c0: 93e9 d3bd e62e d63a ed8c 5bbd 7d75 eebc
000002d0: c20e 73bd 5593 0a3c f28d 11bd a191 afbd
000002e0: b13f 983d aa33 7a3d 2d94 3d3d e512 10bd
000002f0: cda7 1f3c f3ee 0ebc b49e 06bd eb93 30bd
-0.07071448 -0.021756345 0.039462198 0.057596855 0.0011954785 -0.007237045 -0.008670067 -0.044039708
-0.060487214 -0.008777453 0.044321135 -0.029171031 -0.0057760035 0.032633957 0.059990376 -0.05849233
0.0045512044 0.018187033 0.014869952 -0.06269404 0.096182264 0.013777338 0.042264085 0.006977113
-0.011532557 0.057140965 -0.14529912 0.03876444 0.018042257 0.011005801 0.026943395 -0.024042439
0.2535708 -0.015043951 0.037275046 -0.007148163 0.0056999824 0.11297354 0.06336357 -0.02048099
-0.10757945 0.06423682 0.01783052 -0.026108302 -0.07581671 0.021348238 -0.03599017 -0.072095044
-0.038514044 -0.09436474 -0.07900004 0.08577152 0.054208215 -0.022111235 -0.02105059 -0.012197887
0.005967655 0.015185022 0.299317 -0.07204855 -0.0062517426 0.033156563 -0.011801876 -0.13684434
-0.013721838 0.040539324 -0.031245502 0.10208924 -0.01539157 0.019455558 -0.009843297 -0.042156328
0.058514826 0.0023969419 -0.17114192 -0.022531364 0.07611497 -0.019305002 -0.0070235124 -0.08401541
-0.018265327 -0.042405576 -0.06821213 -0.00726606 -0.051019423 0.06852429 0.028371764 -0.04833375
0.028907217 -0.0072323475 0.039916795 0.033695027 -0.10527558 -0.032915987 0.031705476 -0.04365807
0.13350345 0.010802818 -0.089000024 0.015110928 0.21417558 -0.016009182 -0.12620626 -0.0023357111
-0.045711532 0.023030553 0.0037971425 0.02338879 -0.1983322 0.013451664 -0.03233591 0.100552805
-0.2089597 0.14173947 0.016426438 0.072658606 0.05265289 -0.1442065 -0.0119994655 0.045577005
-0.06723261 -0.062715836 0.11960187 -0.10106859 -0.05871394 0.032207955 0.040869173 -0.14576545
-0.4282516 0.05969366 0.23131078 0.08480636 0.03404867 -0.020911805 0.1311129 0.019656762
-0.03826248 0.04032598 0.19357324 0.02218728 0.073726736 -0.058390334 0.22060397 -0.046548847
-0.2736603 -0.274942 -0.03719015 0.17429158 0.16596079 -0.1908744 0.032191355 0.11727265
0.16454528 -0.008742474 0.18758284 0.20506409 -0.27330968 0.059780944 -0.31671473 -0.23303452
-0.010781706 -0.06963579 -0.06694571 -0.10776572 -0.04779351 0.0867189 -0.14147078 0.0062300954
-0.02401833 -1.1689341e-05 0.100673534 0.0042598634 -0.19304098 -0.02639521 0.069502145 0.040073756
-0.10347285 0.0016340881 -0.053601194 -0.029108757 -0.059340246 0.008457978 -0.03553576 -0.085726984
0.07434023 0.061084427 0.04628389 -0.03517427 0.009744597 -0.008723962 -0.032866195 -0.043109816

fc_loc.2.bias f4 [6]
00000000: 911b 823f fe9a 88bc 2bbb bcbc 777a 5ebd
00000010: 4431 953f 372b 7c3c
1.0164663 -0.016675469 -0.023038467 -0.05431601 1.165566 0.015391163
